…
I0717 22:54:56.756784 23375 solver.cpp:87] Creating training net from net file: code/sphereface_model.prototxt
I0717 22:54:56.758580 23375 net.cpp:51] Initializing net from parameters: 
name: ""SpherefaceNet-20""
state {
  phase: TRAIN
  level: 0
  stage: """"
}
layer {
  name: ""data""
  type: ""ImageData""
  top: ""data""
  top: ""label""
  transform_param {
    scale: 0.0078125
    mirror: true
    mean_value: 127.5
    mean_value: 127.5
    mean_value: 127.5
  }
  image_data_param {
    source: ""data/CASIA-WebFace-112X96.txt""
    batch_size: 256
    shuffle: true
  }
}
layer {
  name: ""conv1_1""
  type: ""Convolution""
  bottom: ""data""
  top: ""conv1_1""
  param {
    lr_mult: 1
    decay_mult: 1
  }
  param {
    lr_mult: 2
    decay_mult: 0
  }
  convolution_param {
    num_output: 64
    pad: 1
    kernel_size: 3
    stride: 2
    weight_filler {
      type: ""xavier""
    }
    bias_filler {
      type: ""constant""
      value: 0
    }
  }
}
layer {
  name: ""relu1_1""
  type: ""PReLU""
  bottom: ""conv1_1""
  top: ""conv1_1""
}
layer {
  name: ""conv1_2""
  type: ""Convolution""
  bottom: ""conv1_1""
  top: ""conv1_2""
  param {
    lr_mult: 1
    decay_mult: 1
  }
  param {
    lr_mult: 0
    decay_mult: 0
  }
  convolution_param {
    num_output: 64
    pad: 1
    kernel_size: 3
    stride: 1
    weight_filler {
      type: ""gaussian""
      std: 0.01
    }
    bias_filler {
      type: ""constant""
      value: 0
    }
  }
}
layer {
  name: ""relu1_2""
  type: ""PReLU""
  bottom: ""conv1_2""
  top: ""conv1_2""
}
layer {
  name: ""conv1_3""
  type: ""Convolution""
  bottom: ""conv1_2""
  top: ""conv1_3""
  param {
    lr_mult: 1
    decay_mult: 1
  }
  param {
    lr_mult: 0
    decay_mult: 0
  }
  convolution_param {
    num_output: 64
    pad: 1
    kernel_size: 3
    stride: 1
    weight_filler {
      type: ""gaussian""
      std: 0.01
    }
    bias_filler {
      type: ""constant""
      value: 0
    }
  }
}
layer {
  name: ""relu1_3""
  type: ""PReLU""
  bottom: ""conv1_3""
  top: ""conv1_3""
}
layer {
  name: ""res1_3""
  type: ""Eltwise""
  bottom: ""conv1_1""
  bottom: ""conv1_3""
  top: ""res1_3""
  eltwise_param {
    operation: SUM
  }
}
layer {
  name: ""conv2_1""
  type: ""Convolution""
  bottom: ""res1_3""
  top: ""conv2_1""
  param {
    lr_mult: 1
    decay_mult: 1
  }
  param {
    lr_mult: 2
    decay_mult: 0
  }
  convolution_param {
    num_output: 128
    pad: 1
    kernel_size: 3
    stride: 2
    weight_filler {
      type: ""xavier""
    }
    bias_filler {
      type: ""constant""
      value: 0
    }
  }
}
layer {
  name: ""relu2_1""
  type: ""PReLU""
  bottom: ""conv2_1""
  top: ""conv2_1""
}
layer {
  name: ""conv2_2""
  type: ""Convolution""
  bottom: ""conv2_1""
  top: ""conv2_2""
  param {
    lr_mult: 1
    decay_mult: 1
  }
  param {
    lr_mult: 0
    decay_mult: 0
  }
  convolution_param {
    num_output: 128
    pad: 1
    kernel_size: 3
    stride: 1
    weight_filler {
      type: ""gaussian""
      std: 0.01
    }
    bias_filler {
      type: ""constant""
      value: 0
    }
  }
}
layer {
  name: ""relu2_2""
  type: ""PReLU""
  bottom: ""conv2_2""
  top: ""conv2_2""
}
layer {
  name: ""conv2_3""
  type: ""Convolution""
  bottom: ""conv2_2""
  top: ""conv2_3""
  param {
    lr_mult: 1
    decay_mult: 1
  }
  param {
    lr_mult: 0
    decay_mult: 0
  }
  convolution_param {
    num_output: 128
    pad: 1
    kernel_size: 3
    stride: 1
    weight_filler {
      type: ""gaussian""
      std: 0.01
    }
    bias_filler {
      type: ""constant""
      value: 0
    }
  }
}
layer {
  name: ""relu2_3""
  type: ""PReLU""
  bottom: ""conv2_3""
  top: ""conv2_3""
}
layer {
  name: ""res2_3""
  type: ""Eltwise""
  bottom: ""conv2_1""
  bottom: ""conv2_3""
  top: ""res2_3""
  eltwise_param {
    operation: SUM
  }
}
layer {
  name: ""conv2_4""
  type: ""Convolution""
  bottom: ""res2_3""
  top: ""conv2_4""
  param {
    lr_mult: 1
    decay_mult: 1
  }
  param {
    lr_mult: 0
    decay_mult: 0
  }
  convolution_param {
    num_output: 128
    pad: 1
    kernel_size: 3
    stride: 1
    weight_filler {
      type: ""gaussian""
      std: 0.01
    }
    bias_filler {
      type: ""constant""
      value: 0
    }
  }
}
layer {
  name: ""relu2_4""
  type: ""PReLU""
  bottom: ""conv2_4""
  top: ""conv2_4""
}
layer {
  name: ""conv2_5""
  type: ""Convolution""
  bottom: ""conv2_4""
  top: ""conv2_5""
  param {
    lr_mult: 1
    decay_mult: 1
  }
  param {
    lr_mult: 0
    decay_mult: 0
  }
  convolution_param {
    num_output: 128
    pad: 1
    kernel_size: 3
    stride: 1
    weight_filler {
      type: ""gaussian""
      std: 0.01
    }
    bias_filler {
      type: ""constant""
      value: 0
    }
  }
}
layer {
  name: ""relu2_5""
  type: ""PReLU""
  bottom: ""conv2_5""
  top: ""conv2_5""
}
layer {
  name: ""res2_5""
  type: ""Eltwise""
  bottom: ""res2_3""
  bottom: ""conv2_5""
  top: ""res2_5""
  eltwise_param {
    operation: SUM
  }
}
layer {
  name: ""conv3_1""
  type: ""Convolution""
  bottom: ""res2_5""
  top: ""conv3_1""
  param {
    lr_mult: 1
    decay_mult: 1
  }
  param {
    lr_mult: 2
    decay_mult: 0
  }
  convolution_param {
    num_output: 256
    pad: 1
    kernel_size: 3
    stride: 2
    weight_filler {
      type: ""xavier""
    }
    bias_filler {
      type: ""constant""
      value: 0
    }
  }
}
layer {
  name: ""relu3_1""
  type: ""PReLU""
  bottom: ""conv3_1""
  top: ""conv3_1""
}
layer {
  name: ""conv3_2""
  type: ""Convolution""
  bottom: ""conv3_1""
  top: ""conv3_2""
  param {
    lr_mult: 1
    decay_mult: 1
  }
  param {
    lr_mult: 0
    decay_mult: 0
  }
  convolution_param {
    num_output: 256
    pad: 1
    kernel_size: 3
    stride: 1
    weight_filler {
      type: ""gaussian""
      std: 0.01
    }
    bias_filler {
      type: ""constant""
      value: 0
    }
  }
}
layer {
  name: ""relu3_2""
  type: ""PReLU""
  bottom: ""conv3_2""
  top: ""conv3_2""
}
layer {
  name: ""conv3_3""
  type: ""Convolution""
  bottom: ""conv3_2""
  top: ""conv3_3""
  param {
    lr_mult: 1
    decay_mult: 1
  }
  param {
    lr_mult: 0
    decay_mult: 0
  }
  convolution_param {
    num_output: 256
    pad: 1
    kernel_size: 3
    stride: 1
    weight_filler {
      type: ""gaussian""
      std: 0.01
    }
    bias_filler {
      type: ""constant""
      value: 0
    }
  }
}
layer {
  name: ""relu3_3""
  type: ""PReLU""
  bottom: ""conv3_3""
  top: ""conv3_3""
}
layer {
  name: ""res3_3""
  type: ""Eltwise""
  bottom: ""conv3_1""
  bottom: ""conv3_3""
  top: ""res3_3""
  eltwise_param {
    operation: SUM
  }
}
layer {
  name: ""conv3_4""
  type: ""Convolution""
  bottom: ""res3_3""
  top: ""conv3_4""
  param {
    lr_mult: 1
    decay_mult: 1
  }
  param {
    lr_mult: 0
    decay_mult: 0
  }
  convolution_param {
    num_output: 256
    pad: 1
    kernel_size: 3
    stride: 1
    weight_filler {
      type: ""gaussian""
      std: 0.01
    }
    bias_filler {
      type: ""constant""
      value: 0
    }
  }
}
layer {
  name: ""relu3_4""
  type: ""PReLU""
  bottom: ""conv3_4""
  top: ""conv3_4""
}
layer {
  name: ""conv3_5""
  type: ""Convolution""
  bottom: ""conv3_4""
  top: ""conv3_5""
  param {
    lr_mult: 1
    decay_mult: 1
  }
  param {
    lr_mult: 0
    decay_mult: 0
  }
  convolution_param {
    num_output: 256
    pad: 1
    kernel_size: 3
    stride: 1
    weight_filler {
      type: ""gaussian""
      std: 0.01
    }
    bias_filler {
      type: ""constant""
      value: 0
    }
  }
}
layer {
  name: ""relu3_5""
  type: ""PReLU""
  bottom: ""conv3_5""
  top: ""conv3_5""
}
layer {
  name: ""res3_5""
  type: ""Eltwise""
  bottom: ""res3_3""
  bottom: ""conv3_5""
  top: ""res3_5""
  eltwise_param {
    operation: SUM
  }
}
layer {
  name: ""conv3_6""
  type: ""Convolution""
  bottom: ""res3_5""
  top: ""conv3_6""
  param {
    lr_mult: 1
    decay_mult: 1
  }
  param {
    lr_mult: 0
    decay_mult: 0
  }
  convolution_param {
    num_output: 256
    pad: 1
    kernel_size: 3
    stride: 1
    weight_filler {
      type: ""gaussian""
      std: 0.01
    }
    bias_filler {
      type: ""constant""
      value: 0
    }
  }
}
layer {
  name: ""relu3_6""
  type: ""PReLU""
  bottom: ""conv3_6""
  top: ""conv3_6""
}
layer {
  name: ""conv3_7""
  type: ""Convolution""
  bottom: ""conv3_6""
  top: ""conv3_7""
  param {
    lr_mult: 1
    decay_mult: 1
  }
  param {
    lr_mult: 0
    decay_mult: 0
  }
  convolution_param {
    num_output: 256
    pad: 1
    kernel_size: 3
    stride: 1
    weight_filler {
      type: ""gaussian""
      std: 0.01
    }
    bias_filler {
      type: ""constant""
      value: 0
    }
  }
}
layer {
  name: ""relu3_7""
  type: ""PReLU""
  bottom: ""conv3_7""
  top: ""conv3_7""
}
layer {
  name: ""res3_7""
  type: ""Eltwise""
  bottom: ""res3_5""
  bottom: ""conv3_7""
  top: ""res3_7""
  eltwise_param {
    operation: SUM
  }
}
layer {
  name: ""conv3_8""
  type: ""Convolution""
  bottom: ""res3_7""
  top: ""conv3_8""
  param {
    lr_mult: 1
    decay_mult: 1
  }
  param {
    lr_mult: 0
    decay_mult: 0
  }
  convolution_param {
    num_output: 256
    pad: 1
    kernel_size: 3
    stride: 1
    weight_filler {
      type: ""gaussian""
      std: 0.01
    }
    bias_filler {
      type: ""constant""
      value: 0
    }
  }
}
layer {
  name: ""relu3_8""
  type: ""PReLU""
  bottom: ""conv3_8""
  top: ""conv3_8""
}
layer {
  name: ""conv3_9""
  type: ""Convolution""
  bottom: ""conv3_8""
  top: ""conv3_9""
  param {
    lr_mult: 1
    decay_mult: 1
  }
  param {
    lr_mult: 0
    decay_mult: 0
  }
  convolution_param {
    num_output: 256
    pad: 1
    kernel_size: 3
    stride: 1
    weight_filler {
      type: ""gaussian""
      std: 0.01
    }
    bias_filler {
      type: ""constant""
      value: 0
    }
  }
}
layer {
  name: ""relu3_9""
  type: ""PReLU""
  bottom: ""conv3_9""
  top: ""conv3_9""
}
layer {
  name: ""res3_9""
  type: ""Eltwise""
  bottom: ""res3_7""
  bottom: ""conv3_9""
  top: ""res3_9""
  eltwise_param {
    operation: SUM
  }
}
layer {
  name: ""conv4_1""
  type: ""Convolution""
  bottom: ""res3_9""
  top: ""conv4_1""
  param {
    lr_mult: 1
    decay_mult: 1
  }
  param {
    lr_mult: 2
    decay_mult: 0
  }
  convolution_param {
    num_output: 512
    pad: 1
    kernel_size: 3
    stride: 2
    weight_filler {
      type: ""xavier""
    }
    bias_filler {
      type: ""constant""
      value: 0
    }
  }
}
layer {
  name: ""relu4_1""
  type: ""PReLU""
  bottom: ""conv4_1""
  top: ""conv4_1""
}
layer {
  name: ""conv4_2""
  type: ""Convolution""
  bottom: ""conv4_1""
  top: ""conv4_2""
  param {
    lr_mult: 1
    decay_mult: 1
  }
  param {
    lr_mult: 0
    decay_mult: 0
  }
  convolution_param {
    num_output: 512
    pad: 1
    kernel_size: 3
    stride: 1
    weight_filler {
      type: ""gaussian""
      std: 0.01
    }
    bias_filler {
      type: ""constant""
      value: 0
    }
  }
}
layer {
  name: ""relu4_2""
  type: ""PReLU""
  bottom: ""conv4_2""
  top: ""conv4_2""
}
layer {
  name: ""conv4_3""
  type: ""Convolution""
  bottom: ""conv4_2""
  top: ""conv4_3""
  param {
    lr_mult: 1
    decay_mult: 1
  }
  param {
    lr_mult: 0
    decay_mult: 0
  }
  convolution_param {
    num_output: 512
    pad: 1
    kernel_size: 3
    stride: 1
    weight_filler {
      type: ""gaussian""
      std: 0.01
    }
    bias_filler {
      type: ""constant""
      value: 0
    }
  }
}
layer {
  name: ""relu4_3""
  type: ""PReLU""
  bottom: ""conv4_3""
  top: ""conv4_3""
}
layer {
  name: ""res4_3""
  type: ""Eltwise""
  bottom: ""conv4_1""
  bottom: ""conv4_3""
  top: ""res4_3""
  eltwise_param {
    operation: SUM
  }
}
layer {
  name: ""fc5""
  type: ""InnerProduct""
  bottom: ""res4_3""
  top: ""fc5""
  param {
    lr_mult: 1
    decay_mult: 1
  }
  param {
    lr_mult: 2
    decay_mult: 0
  }
  inner_product_param {
    num_output: 512
    weight_filler {
      type: ""xavier""
    }
    bias_filler {
      type: ""constant""
      value: 0
    }
  }
}
layer {
  name: ""fc6""
  type: ""MarginInnerProduct""
  bottom: ""fc5""
  bottom: ""label""
  top: ""fc6""
  top: ""lambda""
  param {
    lr_mult: 1
    decay_mult: 1
  }
  margin_inner_product_param {
    num_output: 10572
    type: QUADRUPLE
    weight_filler {
      type: ""xavier""
    }
    base: 1000
    gamma: 0.12
    power: 1
    iteration: 0
    lambda_min: 5
  }
}
layer {
  name: ""softmax_loss""
  type: ""SoftmaxWithLoss""
  bottom: ""fc6""
  bottom: ""label""
  top: ""softmax_loss""
}
I0717 22:54:56.758893 23375 layer_factory.hpp:77] Creating layer data
I0717 22:54:56.758935 23375 net.cpp:84] Creating Layer data
I0717 22:54:56.758946 23375 net.cpp:380] data -> data
I0717 22:54:56.759002 23375 net.cpp:380] data -> label
I0717 22:54:56.759483 23375 image_data_layer.cpp:38] Opening file data/CASIA-WebFace-112X96.txt
I0717 22:54:56.768184 23375 image_data_layer.cpp:53] Shuffling data
I0717 22:54:56.769104 23375 image_data_layer.cpp:63] A total of 29485 images.
I0717 22:54:56.770115 23375 image_data_layer.cpp:90] output data size: 256,3,112,96
I0717 22:54:56.844602 23375 net.cpp:122] Setting up data
I0717 22:54:56.844641 23375 net.cpp:129] Top shape: 256 3 112 96 (8257536)
I0717 22:54:56.844651 23375 net.cpp:129] Top shape: 256 (256)
I0717 22:54:56.844660 23375 net.cpp:137] Memory required for data: 33031168
I0717 22:54:56.844672 23375 layer_factory.hpp:77] Creating layer label_data_1_split
I0717 22:54:56.844698 23375 net.cpp:84] Creating Layer label_data_1_split
I0717 22:54:56.844709 23375 net.cpp:406] label_data_1_split <- label
I0717 22:54:56.844729 23375 net.cpp:380] label_data_1_split -> label_data_1_split_0
I0717 22:54:56.844749 23375 net.cpp:380] label_data_1_split -> label_data_1_split_1
I0717 22:54:56.844832 23375 net.cpp:122] Setting up label_data_1_split
I0717 22:54:56.844846 23375 net.cpp:129] Top shape: 256 (256)
I0717 22:54:56.844853 23375 net.cpp:129] Top shape: 256 (256)
I0717 22:54:56.844859 23375 net.cpp:137] Memory required for data: 33033216
I0717 22:54:56.844866 23375 layer_factory.hpp:77] Creating layer conv1_1
I0717 22:54:56.844892 23375 net.cpp:84] Creating Layer conv1_1
I0717 22:54:56.844900 23375 net.cpp:406] conv1_1 <- data
I0717 22:54:56.844916 23375 net.cpp:380] conv1_1 -> conv1_1
I0717 22:54:57.131815 23375 net.cpp:122] Setting up conv1_1
I0717 22:54:57.131852 23375 net.cpp:129] Top shape: 256 64 56 48 (44040192)
I0717 22:54:57.131860 23375 net.cpp:137] Memory required for data: 209193984
I0717 22:54:57.131904 23375 layer_factory.hpp:77] Creating layer relu1_1
I0717 22:54:57.131924 23375 net.cpp:84] Creating Layer relu1_1
I0717 22:54:57.131940 23375 net.cpp:406] relu1_1 <- conv1_1
I0717 22:54:57.131953 23375 net.cpp:367] relu1_1 -> conv1_1 (in-place)
I0717 22:54:57.132736 23375 net.cpp:122] Setting up relu1_1
I0717 22:54:57.132753 23375 net.cpp:129] Top shape: 256 64 56 48 (44040192)
I0717 22:54:57.132761 23375 net.cpp:137] Memory required for data: 385354752
I0717 22:54:57.132786 23375 layer_factory.hpp:77] Creating layer conv1_1_relu1_1_0_split
I0717 22:54:57.132798 23375 net.cpp:84] Creating Layer conv1_1_relu1_1_0_split
I0717 22:54:57.132815 23375 net.cpp:406] conv1_1_relu1_1_0_split <- conv1_1
I0717 22:54:57.132833 23375 net.cpp:380] conv1_1_relu1_1_0_split -> conv1_1_relu1_1_0_split_0
I0717 22:54:57.132848 23375 net.cpp:380] conv1_1_relu1_1_0_split -> conv1_1_relu1_1_0_split_1
I0717 22:54:57.132897 23375 net.cpp:122] Setting up conv1_1_relu1_1_0_split
I0717 22:54:57.132910 23375 net.cpp:129] Top shape: 256 64 56 48 (44040192)
I0717 22:54:57.132920 23375 net.cpp:129] Top shape: 256 64 56 48 (44040192)
I0717 22:54:57.132925 23375 net.cpp:137] Memory required for data: 737676288
I0717 22:54:57.132931 23375 layer_factory.hpp:77] Creating layer conv1_2
I0717 22:54:57.132951 23375 net.cpp:84] Creating Layer conv1_2
I0717 22:54:57.132959 23375 net.cpp:406] conv1_2 <- conv1_1_relu1_1_0_split_0
I0717 22:54:57.132972 23375 net.cpp:380] conv1_2 -> conv1_2
I0717 22:54:57.135821 23375 net.cpp:122] Setting up conv1_2
I0717 22:54:57.135839 23375 net.cpp:129] Top shape: 256 64 56 48 (44040192)
I0717 22:54:57.135848 23375 net.cpp:137] Memory required for data: 913837056
I0717 22:54:57.135875 23375 layer_factory.hpp:77] Creating layer relu1_2
I0717 22:54:57.135892 23375 net.cpp:84] Creating Layer relu1_2
I0717 22:54:57.135905 23375 net.cpp:406] relu1_2 <- conv1_2
I0717 22:54:57.135941 23375 net.cpp:367] relu1_2 -> conv1_2 (in-place)
I0717 22:54:57.136690 23375 net.cpp:122] Setting up relu1_2
I0717 22:54:57.136708 23375 net.cpp:129] Top shape: 256 64 56 48 (44040192)
I0717 22:54:57.136715 23375 net.cpp:137] Memory required for data: 1089997824
I0717 22:54:57.136737 23375 layer_factory.hpp:77] Creating layer conv1_3
I0717 22:54:57.136754 23375 net.cpp:84] Creating Layer conv1_3
I0717 22:54:57.136765 23375 net.cpp:406] conv1_3 <- conv1_2
I0717 22:54:57.136778 23375 net.cpp:380] conv1_3 -> conv1_3
I0717 22:54:57.139103 23375 net.cpp:122] Setting up conv1_3
I0717 22:54:57.139122 23375 net.cpp:129] Top shape: 256 64 56 48 (44040192)
I0717 22:54:57.139129 23375 net.cpp:137] Memory required for data: 1266158592
I0717 22:54:57.139154 23375 layer_factory.hpp:77] Creating layer relu1_3
I0717 22:54:57.139165 23375 net.cpp:84] Creating Layer relu1_3
I0717 22:54:57.139176 23375 net.cpp:406] relu1_3 <- conv1_3
I0717 22:54:57.139187 23375 net.cpp:367] relu1_3 -> conv1_3 (in-place)
I0717 22:54:57.139940 23375 net.cpp:122] Setting up relu1_3
I0717 22:54:57.139956 23375 net.cpp:129] Top shape: 256 64 56 48 (44040192)
I0717 22:54:57.139963 23375 net.cpp:137] Memory required for data: 1442319360
I0717 22:54:57.139989 23375 layer_factory.hpp:77] Creating layer res1_3
I0717 22:54:57.140007 23375 net.cpp:84] Creating Layer res1_3
I0717 22:54:57.140017 23375 net.cpp:406] res1_3 <- conv1_1_relu1_1_0_split_1
I0717 22:54:57.140027 23375 net.cpp:406] res1_3 <- conv1_3
I0717 22:54:57.140038 23375 net.cpp:380] res1_3 -> res1_3
I0717 22:54:57.140074 23375 net.cpp:122] Setting up res1_3
I0717 22:54:57.140089 23375 net.cpp:129] Top shape: 256 64 56 48 (44040192)
I0717 22:54:57.140096 23375 net.cpp:137] Memory required for data: 1618480128
I0717 22:54:57.140102 23375 layer_factory.hpp:77] Creating layer conv2_1
I0717 22:54:57.140118 23375 net.cpp:84] Creating Layer conv2_1
I0717 22:54:57.140126 23375 net.cpp:406] conv2_1 <- res1_3
I0717 22:54:57.140138 23375 net.cpp:380] conv2_1 -> conv2_1
I0717 22:54:57.142500 23375 net.cpp:122] Setting up conv2_1
I0717 22:54:57.142519 23375 net.cpp:129] Top shape: 256 128 28 24 (22020096)
I0717 22:54:57.142526 23375 net.cpp:137] Memory required for data: 1706560512
I0717 22:54:57.142552 23375 layer_factory.hpp:77] Creating layer relu2_1
I0717 22:54:57.142565 23375 net.cpp:84] Creating Layer relu2_1
I0717 22:54:57.142580 23375 net.cpp:406] relu2_1 <- conv2_1
I0717 22:54:57.142594 23375 net.cpp:367] relu2_1 -> conv2_1 (in-place)
I0717 22:54:57.142751 23375 net.cpp:122] Setting up relu2_1
I0717 22:54:57.142768 23375 net.cpp:129] Top shape: 256 128 28 24 (22020096)
I0717 22:54:57.142776 23375 net.cpp:137] Memory required for data: 1794640896
I0717 22:54:57.142784 23375 layer_factory.hpp:77] Creating layer conv2_1_relu2_1_0_split
I0717 22:54:57.142796 23375 net.cpp:84] Creating Layer conv2_1_relu2_1_0_split
I0717 22:54:57.142808 23375 net.cpp:406] conv2_1_relu2_1_0_split <- conv2_1
I0717 22:54:57.142819 23375 net.cpp:380] conv2_1_relu2_1_0_split -> conv2_1_relu2_1_0_split_0
I0717 22:54:57.142832 23375 net.cpp:380] conv2_1_relu2_1_0_split -> conv2_1_relu2_1_0_split_1
I0717 22:54:57.142879 23375 net.cpp:122] Setting up conv2_1_relu2_1_0_split
I0717 22:54:57.142891 23375 net.cpp:129] Top shape: 256 128 28 24 (22020096)
I0717 22:54:57.142900 23375 net.cpp:129] Top shape: 256 128 28 24 (22020096)
I0717 22:54:57.142906 23375 net.cpp:137] Memory required for data: 1970801664
I0717 22:54:57.142913 23375 layer_factory.hpp:77] Creating layer conv2_2
I0717 22:54:57.142928 23375 net.cpp:84] Creating Layer conv2_2
I0717 22:54:57.142937 23375 net.cpp:406] conv2_2 <- conv2_1_relu2_1_0_split_0
I0717 22:54:57.142949 23375 net.cpp:380] conv2_2 -> conv2_2
I0717 22:54:57.149407 23375 net.cpp:122] Setting up conv2_2
I0717 22:54:57.149425 23375 net.cpp:129] Top shape: 256 128 28 24 (22020096)
I0717 22:54:57.149433 23375 net.cpp:137] Memory required for data: 2058882048
I0717 22:54:57.149458 23375 layer_factory.hpp:77] Creating layer relu2_2
I0717 22:54:57.149469 23375 net.cpp:84] Creating Layer relu2_2
I0717 22:54:57.149497 23375 net.cpp:406] relu2_2 <- conv2_2
I0717 22:54:57.149509 23375 net.cpp:367] relu2_2 -> conv2_2 (in-place)
I0717 22:54:57.149673 23375 net.cpp:122] Setting up relu2_2
I0717 22:54:57.149691 23375 net.cpp:129] Top shape: 256 128 28 24 (22020096)
I0717 22:54:57.149698 23375 net.cpp:137] Memory required for data: 2146962432
I0717 22:54:57.149708 23375 layer_factory.hpp:77] Creating layer conv2_3
I0717 22:54:57.149724 23375 net.cpp:84] Creating Layer conv2_3
I0717 22:54:57.149734 23375 net.cpp:406] conv2_3 <- conv2_2
I0717 22:54:57.149746 23375 net.cpp:380] conv2_3 -> conv2_3
I0717 22:54:57.156194 23375 net.cpp:122] Setting up conv2_3
I0717 22:54:57.156213 23375 net.cpp:129] Top shape: 256 128 28 24 (22020096)
I0717 22:54:57.156221 23375 net.cpp:137] Memory required for data: 2235042816
I0717 22:54:57.156239 23375 layer_factory.hpp:77] Creating layer relu2_3
I0717 22:54:57.156251 23375 net.cpp:84] Creating Layer relu2_3
I0717 22:54:57.156260 23375 net.cpp:406] relu2_3 <- conv2_3
I0717 22:54:57.156270 23375 net.cpp:367] relu2_3 -> conv2_3 (in-place)
I0717 22:54:57.156453 23375 net.cpp:122] Setting up relu2_3
I0717 22:54:57.156468 23375 net.cpp:129] Top shape: 256 128 28 24 (22020096)
I0717 22:54:57.156476 23375 net.cpp:137] Memory required for data: 2323123200
I0717 22:54:57.156484 23375 layer_factory.hpp:77] Creating layer res2_3
I0717 22:54:57.156496 23375 net.cpp:84] Creating Layer res2_3
I0717 22:54:57.156503 23375 net.cpp:406] res2_3 <- conv2_1_relu2_1_0_split_1
I0717 22:54:57.156512 23375 net.cpp:406] res2_3 <- conv2_3
I0717 22:54:57.156522 23375 net.cpp:380] res2_3 -> res2_3
I0717 22:54:57.156563 23375 net.cpp:122] Setting up res2_3
I0717 22:54:57.156575 23375 net.cpp:129] Top shape: 256 128 28 24 (22020096)
I0717 22:54:57.156582 23375 net.cpp:137] Memory required for data: 2411203584
I0717 22:54:57.156589 23375 layer_factory.hpp:77] Creating layer res2_3_res2_3_0_split
I0717 22:54:57.156597 23375 net.cpp:84] Creating Layer res2_3_res2_3_0_split
I0717 22:54:57.156605 23375 net.cpp:406] res2_3_res2_3_0_split <- res2_3
I0717 22:54:57.156615 23375 net.cpp:380] res2_3_res2_3_0_split -> res2_3_res2_3_0_split_0
I0717 22:54:57.156627 23375 net.cpp:380] res2_3_res2_3_0_split -> res2_3_res2_3_0_split_1
I0717 22:54:57.156688 23375 net.cpp:122] Setting up res2_3_res2_3_0_split
I0717 22:54:57.156702 23375 net.cpp:129] Top shape: 256 128 28 24 (22020096)
I0717 22:54:57.156710 23375 net.cpp:129] Top shape: 256 128 28 24 (22020096)
I0717 22:54:57.156716 23375 net.cpp:137] Memory required for data: 2587364352
I0717 22:54:57.156723 23375 layer_factory.hpp:77] Creating layer conv2_4
I0717 22:54:57.156738 23375 net.cpp:84] Creating Layer conv2_4
I0717 22:54:57.156746 23375 net.cpp:406] conv2_4 <- res2_3_res2_3_0_split_0
I0717 22:54:57.156759 23375 net.cpp:380] conv2_4 -> conv2_4
I0717 22:54:57.163316 23375 net.cpp:122] Setting up conv2_4
I0717 22:54:57.163336 23375 net.cpp:129] Top shape: 256 128 28 24 (22020096)
I0717 22:54:57.163343 23375 net.cpp:137] Memory required for data: 2675444736
I0717 22:54:57.163357 23375 layer_factory.hpp:77] Creating layer relu2_4
I0717 22:54:57.163368 23375 net.cpp:84] Creating Layer relu2_4
I0717 22:54:57.163377 23375 net.cpp:406] relu2_4 <- conv2_4
I0717 22:54:57.163386 23375 net.cpp:367] relu2_4 -> conv2_4 (in-place)
I0717 22:54:57.163552 23375 net.cpp:122] Setting up relu2_4
I0717 22:54:57.163566 23375 net.cpp:129] Top shape: 256 128 28 24 (22020096)
I0717 22:54:57.163573 23375 net.cpp:137] Memory required for data: 2763525120
I0717 22:54:57.163583 23375 layer_factory.hpp:77] Creating layer conv2_5
I0717 22:54:57.163599 23375 net.cpp:84] Creating Layer conv2_5
I0717 22:54:57.163609 23375 net.cpp:406] conv2_5 <- conv2_4
I0717 22:54:57.163625 23375 net.cpp:380] conv2_5 -> conv2_5
I0717 22:54:57.174243 23375 net.cpp:122] Setting up conv2_5
I0717 22:54:57.174264 23375 net.cpp:129] Top shape: 256 128 28 24 (22020096)
I0717 22:54:57.174273 23375 net.cpp:137] Memory required for data: 2851605504
I0717 22:54:57.174298 23375 layer_factory.hpp:77] Creating layer relu2_5
I0717 22:54:57.174329 23375 net.cpp:84] Creating Layer relu2_5
I0717 22:54:57.174340 23375 net.cpp:406] relu2_5 <- conv2_5
I0717 22:54:57.174355 23375 net.cpp:367] relu2_5 -> conv2_5 (in-place)
I0717 22:54:57.174533 23375 net.cpp:122] Setting up relu2_5
I0717 22:54:57.174547 23375 net.cpp:129] Top shape: 256 128 28 24 (22020096)
I0717 22:54:57.174554 23375 net.cpp:137] Memory required for data: 2939685888
I0717 22:54:57.174564 23375 layer_factory.hpp:77] Creating layer res2_5
I0717 22:54:57.174582 23375 net.cpp:84] Creating Layer res2_5
I0717 22:54:57.174589 23375 net.cpp:406] res2_5 <- res2_3_res2_3_0_split_1
I0717 22:54:57.174598 23375 net.cpp:406] res2_5 <- conv2_5
I0717 22:54:57.174608 23375 net.cpp:380] res2_5 -> res2_5
I0717 22:54:57.174649 23375 net.cpp:122] Setting up res2_5
I0717 22:54:57.174660 23375 net.cpp:129] Top shape: 256 128 28 24 (22020096)
I0717 22:54:57.174669 23375 net.cpp:137] Memory required for data: 3027766272
I0717 22:54:57.174676 23375 layer_factory.hpp:77] Creating layer conv3_1
I0717 22:54:57.174693 23375 net.cpp:84] Creating Layer conv3_1
I0717 22:54:57.174703 23375 net.cpp:406] conv3_1 <- res2_5
I0717 22:54:57.174715 23375 net.cpp:380] conv3_1 -> conv3_1
I0717 22:54:57.179035 23375 net.cpp:122] Setting up conv3_1
I0717 22:54:57.179054 23375 net.cpp:129] Top shape: 256 256 14 12 (11010048)
I0717 22:54:57.179062 23375 net.cpp:137] Memory required for data: 3071806464
I0717 22:54:57.179086 23375 layer_factory.hpp:77] Creating layer relu3_1
I0717 22:54:57.179097 23375 net.cpp:84] Creating Layer relu3_1
I0717 22:54:57.179105 23375 net.cpp:406] relu3_1 <- conv3_1
I0717 22:54:57.179116 23375 net.cpp:367] relu3_1 -> conv3_1 (in-place)
I0717 22:54:57.179275 23375 net.cpp:122] Setting up relu3_1
I0717 22:54:57.179291 23375 net.cpp:129] Top shape: 256 256 14 12 (11010048)
I0717 22:54:57.179297 23375 net.cpp:137] Memory required for data: 3115846656
I0717 22:54:57.179306 23375 layer_factory.hpp:77] Creating layer conv3_1_relu3_1_0_split
I0717 22:54:57.179316 23375 net.cpp:84] Creating Layer conv3_1_relu3_1_0_split
I0717 22:54:57.179324 23375 net.cpp:406] conv3_1_relu3_1_0_split <- conv3_1
I0717 22:54:57.179334 23375 net.cpp:380] conv3_1_relu3_1_0_split -> conv3_1_relu3_1_0_split_0
I0717 22:54:57.179352 23375 net.cpp:380] conv3_1_relu3_1_0_split -> conv3_1_relu3_1_0_split_1
I0717 22:54:57.179412 23375 net.cpp:122] Setting up conv3_1_relu3_1_0_split
I0717 22:54:57.179425 23375 net.cpp:129] Top shape: 256 256 14 12 (11010048)
I0717 22:54:57.179433 23375 net.cpp:129] Top shape: 256 256 14 12 (11010048)
I0717 22:54:57.179440 23375 net.cpp:137] Memory required for data: 3203927040
I0717 22:54:57.179446 23375 layer_factory.hpp:77] Creating layer conv3_2
I0717 22:54:57.179461 23375 net.cpp:84] Creating Layer conv3_2
I0717 22:54:57.179473 23375 net.cpp:406] conv3_2 <- conv3_1_relu3_1_0_split_0
I0717 22:54:57.179486 23375 net.cpp:380] conv3_2 -> conv3_2
I0717 22:54:57.201071 23375 net.cpp:122] Setting up conv3_2
I0717 22:54:57.201093 23375 net.cpp:129] Top shape: 256 256 14 12 (11010048)
I0717 22:54:57.201102 23375 net.cpp:137] Memory required for data: 3247967232
I0717 22:54:57.201125 23375 layer_factory.hpp:77] Creating layer relu3_2
I0717 22:54:57.201138 23375 net.cpp:84] Creating Layer relu3_2
I0717 22:54:57.201146 23375 net.cpp:406] relu3_2 <- conv3_2
I0717 22:54:57.201158 23375 net.cpp:367] relu3_2 -> conv3_2 (in-place)
I0717 22:54:57.201321 23375 net.cpp:122] Setting up relu3_2
I0717 22:54:57.201335 23375 net.cpp:129] Top shape: 256 256 14 12 (11010048)
I0717 22:54:57.201344 23375 net.cpp:137] Memory required for data: 3292007424
I0717 22:54:57.201352 23375 layer_factory.hpp:77] Creating layer conv3_3
I0717 22:54:57.201369 23375 net.cpp:84] Creating Layer conv3_3
I0717 22:54:57.201380 23375 net.cpp:406] conv3_3 <- conv3_2
I0717 22:54:57.201391 23375 net.cpp:380] conv3_3 -> conv3_3
I0717 22:54:57.222266 23375 net.cpp:122] Setting up conv3_3
I0717 22:54:57.222290 23375 net.cpp:129] Top shape: 256 256 14 12 (11010048)
I0717 22:54:57.222296 23375 net.cpp:137] Memory required for data: 3336047616
I0717 22:54:57.222321 23375 layer_factory.hpp:77] Creating layer relu3_3
I0717 22:54:57.222363 23375 net.cpp:84] Creating Layer relu3_3
I0717 22:54:57.222374 23375 net.cpp:406] relu3_3 <- conv3_3
I0717 22:54:57.222385 23375 net.cpp:367] relu3_3 -> conv3_3 (in-place)
I0717 22:54:57.222537 23375 net.cpp:122] Setting up relu3_3
I0717 22:54:57.222550 23375 net.cpp:129] Top shape: 256 256 14 12 (11010048)
I0717 22:54:57.222558 23375 net.cpp:137] Memory required for data: 3380087808
I0717 22:54:57.222573 23375 layer_factory.hpp:77] Creating layer res3_3
I0717 22:54:57.222589 23375 net.cpp:84] Creating Layer res3_3
I0717 22:54:57.222600 23375 net.cpp:406] res3_3 <- conv3_1_relu3_1_0_split_1
I0717 22:54:57.222609 23375 net.cpp:406] res3_3 <- conv3_3
I0717 22:54:57.222620 23375 net.cpp:380] res3_3 -> res3_3
I0717 22:54:57.222666 23375 net.cpp:122] Setting up res3_3
I0717 22:54:57.222678 23375 net.cpp:129] Top shape: 256 256 14 12 (11010048)
I0717 22:54:57.222684 23375 net.cpp:137] Memory required for data: 3424128000
I0717 22:54:57.222692 23375 layer_factory.hpp:77] Creating layer res3_3_res3_3_0_split
I0717 22:54:57.222704 23375 net.cpp:84] Creating Layer res3_3_res3_3_0_split
I0717 22:54:57.222712 23375 net.cpp:406] res3_3_res3_3_0_split <- res3_3
I0717 22:54:57.222721 23375 net.cpp:380] res3_3_res3_3_0_split -> res3_3_res3_3_0_split_0
I0717 22:54:57.222738 23375 net.cpp:380] res3_3_res3_3_0_split -> res3_3_res3_3_0_split_1
I0717 22:54:57.222789 23375 net.cpp:122] Setting up res3_3_res3_3_0_split
I0717 22:54:57.222800 23375 net.cpp:129] Top shape: 256 256 14 12 (11010048)
I0717 22:54:57.222808 23375 net.cpp:129] Top shape: 256 256 14 12 (11010048)
I0717 22:54:57.222815 23375 net.cpp:137] Memory required for data: 3512208384
I0717 22:54:57.222821 23375 layer_factory.hpp:77] Creating layer conv3_4
I0717 22:54:57.222836 23375 net.cpp:84] Creating Layer conv3_4
I0717 22:54:57.222846 23375 net.cpp:406] conv3_4 <- res3_3_res3_3_0_split_0
I0717 22:54:57.222857 23375 net.cpp:380] conv3_4 -> conv3_4
I0717 22:54:57.244524 23375 net.cpp:122] Setting up conv3_4
I0717 22:54:57.244549 23375 net.cpp:129] Top shape: 256 256 14 12 (11010048)
I0717 22:54:57.244556 23375 net.cpp:137] Memory required for data: 3556248576
I0717 22:54:57.244570 23375 layer_factory.hpp:77] Creating layer relu3_4
I0717 22:54:57.244581 23375 net.cpp:84] Creating Layer relu3_4
I0717 22:54:57.244590 23375 net.cpp:406] relu3_4 <- conv3_4
I0717 22:54:57.244601 23375 net.cpp:367] relu3_4 -> conv3_4 (in-place)
I0717 22:54:57.244756 23375 net.cpp:122] Setting up relu3_4
I0717 22:54:57.244771 23375 net.cpp:129] Top shape: 256 256 14 12 (11010048)
I0717 22:54:57.244777 23375 net.cpp:137] Memory required for data: 3600288768
I0717 22:54:57.244787 23375 layer_factory.hpp:77] Creating layer conv3_5
I0717 22:54:57.244804 23375 net.cpp:84] Creating Layer conv3_5
I0717 22:54:57.244814 23375 net.cpp:406] conv3_5 <- conv3_4
I0717 22:54:57.244827 23375 net.cpp:380] conv3_5 -> conv3_5
I0717 22:54:57.265857 23375 net.cpp:122] Setting up conv3_5
I0717 22:54:57.265877 23375 net.cpp:129] Top shape: 256 256 14 12 (11010048)
I0717 22:54:57.265885 23375 net.cpp:137] Memory required for data: 3644328960
I0717 22:54:57.265909 23375 layer_factory.hpp:77] Creating layer relu3_5
I0717 22:54:57.265921 23375 net.cpp:84] Creating Layer relu3_5
I0717 22:54:57.265929 23375 net.cpp:406] relu3_5 <- conv3_5
I0717 22:54:57.265940 23375 net.cpp:367] relu3_5 -> conv3_5 (in-place)
I0717 22:54:57.266609 23375 net.cpp:122] Setting up relu3_5
I0717 22:54:57.266626 23375 net.cpp:129] Top shape: 256 256 14 12 (11010048)
I0717 22:54:57.266633 23375 net.cpp:137] Memory required for data: 3688369152
I0717 22:54:57.266655 23375 layer_factory.hpp:77] Creating layer res3_5
I0717 22:54:57.266667 23375 net.cpp:84] Creating Layer res3_5
I0717 22:54:57.266681 23375 net.cpp:406] res3_5 <- res3_3_res3_3_0_split_1
I0717 22:54:57.266691 23375 net.cpp:406] res3_5 <- conv3_5
I0717 22:54:57.266706 23375 net.cpp:380] res3_5 -> res3_5
I0717 22:54:57.266752 23375 net.cpp:122] Setting up res3_5
I0717 22:54:57.266765 23375 net.cpp:129] Top shape: 256 256 14 12 (11010048)
I0717 22:54:57.266794 23375 net.cpp:137] Memory required for data: 3732409344
I0717 22:54:57.266803 23375 layer_factory.hpp:77] Creating layer res3_5_res3_5_0_split
I0717 22:54:57.266814 23375 net.cpp:84] Creating Layer res3_5_res3_5_0_split
I0717 22:54:57.266826 23375 net.cpp:406] res3_5_res3_5_0_split <- res3_5
I0717 22:54:57.266837 23375 net.cpp:380] res3_5_res3_5_0_split -> res3_5_res3_5_0_split_0
I0717 22:54:57.266854 23375 net.cpp:380] res3_5_res3_5_0_split -> res3_5_res3_5_0_split_1
I0717 22:54:57.266907 23375 net.cpp:122] Setting up res3_5_res3_5_0_split
I0717 22:54:57.266927 23375 net.cpp:129] Top shape: 256 256 14 12 (11010048)
I0717 22:54:57.266937 23375 net.cpp:129] Top shape: 256 256 14 12 (11010048)
I0717 22:54:57.266942 23375 net.cpp:137] Memory required for data: 3820489728
I0717 22:54:57.266948 23375 layer_factory.hpp:77] Creating layer conv3_6
I0717 22:54:57.266965 23375 net.cpp:84] Creating Layer conv3_6
I0717 22:54:57.266974 23375 net.cpp:406] conv3_6 <- res3_5_res3_5_0_split_0
I0717 22:54:57.266988 23375 net.cpp:380] conv3_6 -> conv3_6
I0717 22:54:57.290452 23375 net.cpp:122] Setting up conv3_6
I0717 22:54:57.290483 23375 net.cpp:129] Top shape: 256 256 14 12 (11010048)
I0717 22:54:57.290491 23375 net.cpp:137] Memory required for data: 3864529920
I0717 22:54:57.290510 23375 layer_factory.hpp:77] Creating layer relu3_6
I0717 22:54:57.290529 23375 net.cpp:84] Creating Layer relu3_6
I0717 22:54:57.290551 23375 net.cpp:406] relu3_6 <- conv3_6
I0717 22:54:57.290565 23375 net.cpp:367] relu3_6 -> conv3_6 (in-place)
I0717 22:54:57.290731 23375 net.cpp:122] Setting up relu3_6
I0717 22:54:57.290746 23375 net.cpp:129] Top shape: 256 256 14 12 (11010048)
I0717 22:54:57.290753 23375 net.cpp:137] Memory required for data: 3908570112
I0717 22:54:57.290763 23375 layer_factory.hpp:77] Creating layer conv3_7
I0717 22:54:57.290784 23375 net.cpp:84] Creating Layer conv3_7
I0717 22:54:57.290796 23375 net.cpp:406] conv3_7 <- conv3_6
I0717 22:54:57.290808 23375 net.cpp:380] conv3_7 -> conv3_7
I0717 22:54:57.311866 23375 net.cpp:122] Setting up conv3_7
I0717 22:54:57.311885 23375 net.cpp:129] Top shape: 256 256 14 12 (11010048)
I0717 22:54:57.311893 23375 net.cpp:137] Memory required for data: 3952610304
I0717 22:54:57.311918 23375 layer_factory.hpp:77] Creating layer relu3_7
I0717 22:54:57.311928 23375 net.cpp:84] Creating Layer relu3_7
I0717 22:54:57.311935 23375 net.cpp:406] relu3_7 <- conv3_7
I0717 22:54:57.311945 23375 net.cpp:367] relu3_7 -> conv3_7 (in-place)
I0717 22:54:57.312115 23375 net.cpp:122] Setting up relu3_7
I0717 22:54:57.312129 23375 net.cpp:129] Top shape: 256 256 14 12 (11010048)
I0717 22:54:57.312136 23375 net.cpp:137] Memory required for data: 3996650496
I0717 22:54:57.312145 23375 layer_factory.hpp:77] Creating layer res3_7
I0717 22:54:57.312158 23375 net.cpp:84] Creating Layer res3_7
I0717 22:54:57.312171 23375 net.cpp:406] res3_7 <- res3_5_res3_5_0_split_1
I0717 22:54:57.312180 23375 net.cpp:406] res3_7 <- conv3_7
I0717 22:54:57.312188 23375 net.cpp:380] res3_7 -> res3_7
I0717 22:54:57.312233 23375 net.cpp:122] Setting up res3_7
I0717 22:54:57.312247 23375 net.cpp:129] Top shape: 256 256 14 12 (11010048)
I0717 22:54:57.312252 23375 net.cpp:137] Memory required for data: 4040690688
I0717 22:54:57.312260 23375 layer_factory.hpp:77] Creating layer res3_7_res3_7_0_split
I0717 22:54:57.312269 23375 net.cpp:84] Creating Layer res3_7_res3_7_0_split
I0717 22:54:57.312276 23375 net.cpp:406] res3_7_res3_7_0_split <- res3_7
I0717 22:54:57.312288 23375 net.cpp:380] res3_7_res3_7_0_split -> res3_7_res3_7_0_split_0
I0717 22:54:57.312304 23375 net.cpp:380] res3_7_res3_7_0_split -> res3_7_res3_7_0_split_1
I0717 22:54:57.312376 23375 net.cpp:122] Setting up res3_7_res3_7_0_split
I0717 22:54:57.312389 23375 net.cpp:129] Top shape: 256 256 14 12 (11010048)
I0717 22:54:57.312397 23375 net.cpp:129] Top shape: 256 256 14 12 (11010048)
I0717 22:54:57.312404 23375 net.cpp:137] Memory required for data: 4128771072
I0717 22:54:57.312410 23375 layer_factory.hpp:77] Creating layer conv3_8
I0717 22:54:57.312428 23375 net.cpp:84] Creating Layer conv3_8
I0717 22:54:57.312453 23375 net.cpp:406] conv3_8 <- res3_7_res3_7_0_split_0
I0717 22:54:57.312470 23375 net.cpp:380] conv3_8 -> conv3_8
I0717 22:54:57.333389 23375 net.cpp:122] Setting up conv3_8
I0717 22:54:57.333410 23375 net.cpp:129] Top shape: 256 256 14 12 (11010048)
I0717 22:54:57.333417 23375 net.cpp:137] Memory required for data: 4172811264
I0717 22:54:57.333441 23375 layer_factory.hpp:77] Creating layer relu3_8
I0717 22:54:57.333456 23375 net.cpp:84] Creating Layer relu3_8
I0717 22:54:57.333463 23375 net.cpp:406] relu3_8 <- conv3_8
I0717 22:54:57.333477 23375 net.cpp:367] relu3_8 -> conv3_8 (in-place)
I0717 22:54:57.333642 23375 net.cpp:122] Setting up relu3_8
I0717 22:54:57.333657 23375 net.cpp:129] Top shape: 256 256 14 12 (11010048)
I0717 22:54:57.333662 23375 net.cpp:137] Memory required for data: 4216851456
I0717 22:54:57.333673 23375 layer_factory.hpp:77] Creating layer conv3_9
I0717 22:54:57.333690 23375 net.cpp:84] Creating Layer conv3_9
I0717 22:54:57.333700 23375 net.cpp:406] conv3_9 <- conv3_8
I0717 22:54:57.333714 23375 net.cpp:380] conv3_9 -> conv3_9
I0717 22:54:57.354790 23375 net.cpp:122] Setting up conv3_9
I0717 22:54:57.354810 23375 net.cpp:129] Top shape: 256 256 14 12 (11010048)
I0717 22:54:57.354817 23375 net.cpp:137] Memory required for data: 4260891648
I0717 22:54:57.354841 23375 layer_factory.hpp:77] Creating layer relu3_9
I0717 22:54:57.354854 23375 net.cpp:84] Creating Layer relu3_9
I0717 22:54:57.354863 23375 net.cpp:406] relu3_9 <- conv3_9
I0717 22:54:57.354876 23375 net.cpp:367] relu3_9 -> conv3_9 (in-place)
I0717 22:54:57.355044 23375 net.cpp:122] Setting up relu3_9
I0717 22:54:57.355058 23375 net.cpp:129] Top shape: 256 256 14 12 (11010048)
I0717 22:54:57.355065 23375 net.cpp:137] Memory required for data: 4304931840
I0717 22:54:57.355074 23375 layer_factory.hpp:77] Creating layer res3_9
I0717 22:54:57.355087 23375 net.cpp:84] Creating Layer res3_9
I0717 22:54:57.355099 23375 net.cpp:406] res3_9 <- res3_7_res3_7_0_split_1
I0717 22:54:57.355108 23375 net.cpp:406] res3_9 <- conv3_9
I0717 22:54:57.355123 23375 net.cpp:380] res3_9 -> res3_9
I0717 22:54:57.355175 23375 net.cpp:122] Setting up res3_9
I0717 22:54:57.355188 23375 net.cpp:129] Top shape: 256 256 14 12 (11010048)
I0717 22:54:57.355195 23375 net.cpp:137] Memory required for data: 4348972032
I0717 22:54:57.355201 23375 layer_factory.hpp:77] Creating layer conv4_1
I0717 22:54:57.355218 23375 net.cpp:84] Creating Layer conv4_1
I0717 22:54:57.355227 23375 net.cpp:406] conv4_1 <- res3_9
I0717 22:54:57.355242 23375 net.cpp:380] conv4_1 -> conv4_1
I0717 22:54:57.368865 23375 net.cpp:122] Setting up conv4_1
I0717 22:54:57.368886 23375 net.cpp:129] Top shape: 256 512 7 6 (5505024)
I0717 22:54:57.368893 23375 net.cpp:137] Memory required for data: 4370992128
I0717 22:54:57.368917 23375 layer_factory.hpp:77] Creating layer relu4_1
I0717 22:54:57.368932 23375 net.cpp:84] Creating Layer relu4_1
I0717 22:54:57.368939 23375 net.cpp:406] relu4_1 <- conv4_1
I0717 22:54:57.368949 23375 net.cpp:367] relu4_1 -> conv4_1 (in-place)
I0717 22:54:57.369094 23375 net.cpp:122] Setting up relu4_1
I0717 22:54:57.369108 23375 net.cpp:129] Top shape: 256 512 7 6 (5505024)
I0717 22:54:57.369114 23375 net.cpp:137] Memory required for data: 4393012224
I0717 22:54:57.369124 23375 layer_factory.hpp:77] Creating layer conv4_1_relu4_1_0_split
I0717 22:54:57.369137 23375 net.cpp:84] Creating Layer conv4_1_relu4_1_0_split
I0717 22:54:57.369148 23375 net.cpp:406] conv4_1_relu4_1_0_split <- conv4_1
I0717 22:54:57.369158 23375 net.cpp:380] conv4_1_relu4_1_0_split -> conv4_1_relu4_1_0_split_0
I0717 22:54:57.369179 23375 net.cpp:380] conv4_1_relu4_1_0_split -> conv4_1_relu4_1_0_split_1
I0717 22:54:57.369243 23375 net.cpp:122] Setting up conv4_1_relu4_1_0_split
I0717 22:54:57.369257 23375 net.cpp:129] Top shape: 256 512 7 6 (5505024)
I0717 22:54:57.369266 23375 net.cpp:129] Top shape: 256 512 7 6 (5505024)
I0717 22:54:57.369272 23375 net.cpp:137] Memory required for data: 4437052416
I0717 22:54:57.369278 23375 layer_factory.hpp:77] Creating layer conv4_2
I0717 22:54:57.369324 23375 net.cpp:84] Creating Layer conv4_2
I0717 22:54:57.369334 23375 net.cpp:406] conv4_2 <- conv4_1_relu4_1_0_split_0
I0717 22:54:57.369346 23375 net.cpp:380] conv4_2 -> conv4_2
I0717 22:54:57.449687 23375 net.cpp:122] Setting up conv4_2
I0717 22:54:57.449720 23375 net.cpp:129] Top shape: 256 512 7 6 (5505024)
I0717 22:54:57.449728 23375 net.cpp:137] Memory required for data: 4459072512
I0717 22:54:57.449741 23375 layer_factory.hpp:77] Creating layer relu4_2
I0717 22:54:57.449767 23375 net.cpp:84] Creating Layer relu4_2
I0717 22:54:57.449775 23375 net.cpp:406] relu4_2 <- conv4_2
I0717 22:54:57.449790 23375 net.cpp:367] relu4_2 -> conv4_2 (in-place)
I0717 22:54:57.449945 23375 net.cpp:122] Setting up relu4_2
I0717 22:54:57.449959 23375 net.cpp:129] Top shape: 256 512 7 6 (5505024)
I0717 22:54:57.449965 23375 net.cpp:137] Memory required for data: 4481092608
I0717 22:54:57.449975 23375 layer_factory.hpp:77] Creating layer conv4_3
I0717 22:54:57.449996 23375 net.cpp:84] Creating Layer conv4_3
I0717 22:54:57.450006 23375 net.cpp:406] conv4_3 <- conv4_2
I0717 22:54:57.450019 23375 net.cpp:380] conv4_3 -> conv4_3
I0717 22:54:57.530601 23375 net.cpp:122] Setting up conv4_3
I0717 22:54:57.530637 23375 net.cpp:129] Top shape: 256 512 7 6 (5505024)
I0717 22:54:57.530643 23375 net.cpp:137] Memory required for data: 4503112704
I0717 22:54:57.530658 23375 layer_factory.hpp:77] Creating layer relu4_3
I0717 22:54:57.530685 23375 net.cpp:84] Creating Layer relu4_3
I0717 22:54:57.530694 23375 net.cpp:406] relu4_3 <- conv4_3
I0717 22:54:57.530706 23375 net.cpp:367] relu4_3 -> conv4_3 (in-place)
I0717 22:54:57.531402 23375 net.cpp:122] Setting up relu4_3
I0717 22:54:57.531419 23375 net.cpp:129] Top shape: 256 512 7 6 (5505024)
I0717 22:54:57.531426 23375 net.cpp:137] Memory required for data: 4525132800
I0717 22:54:57.531450 23375 layer_factory.hpp:77] Creating layer res4_3
I0717 22:54:57.531464 23375 net.cpp:84] Creating Layer res4_3
I0717 22:54:57.531476 23375 net.cpp:406] res4_3 <- conv4_1_relu4_1_0_split_1
I0717 22:54:57.531484 23375 net.cpp:406] res4_3 <- conv4_3
I0717 22:54:57.531496 23375 net.cpp:380] res4_3 -> res4_3
I0717 22:54:57.531545 23375 net.cpp:122] Setting up res4_3
I0717 22:54:57.531558 23375 net.cpp:129] Top shape: 256 512 7 6 (5505024)
I0717 22:54:57.531564 23375 net.cpp:137] Memory required for data: 4547152896
I0717 22:54:57.531570 23375 layer_factory.hpp:77] Creating layer fc5
I0717 22:54:57.531586 23375 net.cpp:84] Creating Layer fc5
I0717 22:54:57.531597 23375 net.cpp:406] fc5 <- res4_3
I0717 22:54:57.531608 23375 net.cpp:380] fc5 -> fc5
I0717 22:54:57.651867 23375 net.cpp:122] Setting up fc5
I0717 22:54:57.651906 23375 net.cpp:129] Top shape: 256 512 (131072)
I0717 22:54:57.651912 23375 net.cpp:137] Memory required for data: 4547677184
I0717 22:54:57.651942 23375 layer_factory.hpp:77] Creating layer fc6
I0717 22:54:57.651970 23375 net.cpp:84] Creating Layer fc6
I0717 22:54:57.651993 23375 net.cpp:406] fc6 <- fc5
I0717 22:54:57.652007 23375 net.cpp:406] fc6 <- label_data_1_split_0
I0717 22:54:57.652024 23375 net.cpp:380] fc6 -> fc6
I0717 22:54:57.652050 23375 net.cpp:380] fc6 -> lambda
I0717 22:54:57.710330 23375 net.cpp:122] Setting up fc6
I0717 22:54:57.710366 23375 net.cpp:129] Top shape: 256 10572 (2706432)
I0717 22:54:57.710374 23375 net.cpp:129] Top shape: 1 (1)
I0717 22:54:57.710379 23375 net.cpp:137] Memory required for data: 4558502916
I0717 22:54:57.710405 23375 layer_factory.hpp:77] Creating layer softmax_loss
I0717 22:54:57.710423 23375 net.cpp:84] Creating Layer softmax_loss
I0717 22:54:57.710433 23375 net.cpp:406] softmax_loss <- fc6
I0717 22:54:57.710443 23375 net.cpp:406] softmax_loss <- label_data_1_split_1
I0717 22:54:57.710459 23375 net.cpp:380] softmax_loss -> softmax_loss
…
